model.pt (torch, 5075 bytes, 4 tensors)

weight f4 [40, 3]
00000000: f686 a53e e3fe 48be 850b 72be cd06 713d
00000010: fc2a 22be fe98 e8be a083 853e dc0a a23e
00000020: 5ff3 efbe d192 eebe 05d4 e63e af90 99bd
00000030: d9a5 08bf ff82 993e 0d85 acbe 0bec 12be
00000040: 2f5d eebe b31b 023e 5095 9fbd f8ef 5abe
00000050: b42f 013f 21c9 afbe 007d 9abe e4d7 85bd
00000060: e338 ef3d 96bb 91be ae6b 85be dbf9 1f3f
00000070: fc4f 2a3d be38 28bf 98e3 363d 332c 2e3e
00000080: 7c4f e6be e4e1 b53e 696d 103f 0bf5 efbe
00000090: 6c45 173c 39b1 043f 3cb5 123f bc5c ce3e
000000a0: 3373 d63e 3022 84be 1bbd c83e be20 b3be
000000b0: 354d a63d 1386 803e 38b0 03bf 4968 a63d
000000c0: cd58 4cbe 0cbe 533e e9c3 f6be e13a 7b3e
000000d0: 9888 c43e 5752 2ebd 2a96 9bba f818 e63e
000000e0: ab56 e83e 9e96 eabe 8654 013e d706 993d
000000f0: 228f 8f3e 0985 983e bf37 2abe ab0f dcbe
00000100: c293 0ebf cb42 dbbe 74d8 cb3e cad8 b3be
00000110: c16a 2c3e 8cfb 2d3e 71b9 bcbe 1526 69bd
00000120: 4796 43be 2de5 e33e 061f 0cbf 879c ebbe
00000130: 25dd 0e3f 67bd 983e 7eb1 a6be 03da 56be
00000140: 62d4 d8be 8c2a cdbc 8f2d c2be ff54 c73d
00000150: 17c1 8b3e 5c44 03bf 3787 a9bd 893d 6a3e
00000160: ba02 843e 9409 16bd 4171 74bc fbda 0bbf
00000170: 1625 5fbd 85bb dabe 00df 1bbe 051a 84be
00000180: d1e4 783e 723c bbbe fa04 10bf f442 bd3e
00000190: 22e7 07be c849 f23b 41c1 ba3e 8353 0d3f
000001a0: 3ce6 3fbd d354 15bd 122e 94be 944c c63e
000001b0: 3861 93be d097 08bd 4861 f63e 0a2d 12be
000001c0: 241e 713e e15c cc3e 482c 883d 2786 56be
000001d0: 150c e4be 0304 0abf dc4e d43e aada 5dbd
0.3232953 -0.19628482 -0.23637207 0.058844376 -0.1583671 -0.45429224 0.26076984 0.3164891
-0.46865365 -0.46596387 0.45083633 -0.07498299 -0.53378063 0.29982755 -0.3369526 -0.14347856
-0.46555468 0.12705879 -0.07792151 -0.21380603 0.50463414 -0.34333137 -0.30173492 -0.065353185
0.11680772 -0.2846343 -0.26058716 0.62490624 0.041580185 -0.6571158 0.044650644 0.17009048
-0.44982517 0.35523903 0.56416947 -0.4686664 0.00923286 0.5183292 0.5730779 0.40305126
0.41884765 -0.25807333 0.39206776 -0.34985918 0.08120195 0.2510229 -0.51440763 0.081253596
-0.1995575 0.20677966 -0.48196343 0.2453418 0.38385463 -0.042558994 -0.0011870314 0.44940925
0.45378622 -0.45818037 0.126299 0.07472008 0.2803889 0.29788998 -0.16622828 -0.42980704
-0.5569421 -0.42824396 0.39813578 -0.35126334 0.16837598 0.16990489 -0.3686023 -0.056921083
-0.19100295 0.44510785 -0.5473484 -0.46017858 0.5580619 0.29832003 -0.3255729 -0.20981602
-0.42349535 -0.025044702 -0.37925383 0.097330086 0.27295753 -0.51276183 -0.08277743 0.22875036
0.2578333 -0.03663023 -0.01491958 -0.5463101 -0.054478727 -0.4272119 -0.15221786 -0.258011
0.24306037 -0.36569554 -0.56257594 0.36965144 -0.13271764 0.0073940493 0.36475566 0.55205554
-0.046850428 -0.036457848 -0.289414 0.387303 -0.2878511 -0.033347905 0.48121095 -0.14274994
0.23546654 0.3991461 0.06649071 -0.20949613 -0.44540468 -0.5391237 0.41466415 -0.054163612

bias f4 [40]
00000000: 06c5 7d3d 84e7 8b3d 15fc d2bc bdde 83bd
00000010: 836c 60be 9526 1bbf f36a 28be 34e7 1dbe
00000020: d149 2dbe 5b6d 36be d864 993e b4eb 333e
00000030: 9991 84bd 1b12 0b3f f684 05bf 035b 243e
00000040: 2989 813e 49d4 b53e 97ab eabd 9608 9ebe
00000050: abb0 8f3e f588 b9be 1105 b93e 2d7d e13e
00000060: 3c36 873d d0ac 91be 2c54 23bf ed3d b23e
00000070: 3f78 3b3e d636 41be 514e d6be d742 e43e
00000080: e0e5 113e 7ae0 eabd fa01 993e 5be5 79be
00000090: e0f5 f9be 47cf 92be d7d5 b0be 5238 5fbe
0.061955474 0.068312675 -0.025754968 -0.06438968 -0.21916394 -0.60605747 -0.16447048 -0.15420228
-0.1692269 -0.17815153 0.2995975 0.17570382 -0.06473083 0.543245 -0.5215601 0.16050343
0.25299957 0.35513523 -0.114585094 -0.30865926 0.28064474 -0.36237302 0.36136678 0.44040814
0.06602141 -0.28452158 -0.6380031 0.3481287 0.18307589 -0.18868575 -0.41856626 0.44582245
0.14247847 -0.11468597 0.2988432 -0.24403898 -0.488204 -0.28673765 -0.34538147 -0.21798828

weight f4 [10, 40]
00000000: 7322 d53d e82f 523c b284 853d dab2 723d
00000010: a995 b23d ec59 953c a056 d33d 44d4 15ba
00000020: bd78 263e 5f0c 0fbe ea1f a73d a161 d3bc
00000030: 4bae 03bb 676c 18be 6aea d43c b4a6 e43d
00000040: c210 0d3e f810 ffbd f4ce d73d 8fb9 b33d
00000050: fc9e 56ba c4e5 b73c ca72 98bd 0571 e0bd
00000060: 7260 e43d a840 183e 401a 4f3d 907d 203e
00000070: f025 92bc 0bea fb3d d264 7d3d 007f 953b
00000080: 4be3 79bd 2b88 1b3e 6c03 d03d 5ee4 12bc
00000090: 9b19 393d 9330 703d 11a3 fabd c435 123d
000000a0: 190a 3b3d 2124 abbd 5d7d a03d 6aea 95bc
000000b0: 6c1f ee3d 3afb 18be 5443 e93a e522 17bc
000000c0: bd77 2a3d bf8a 9ebd d293 433e 7dd4 b0bd
000000d0: 82d1 283e 2449 253d 38a2 03bd 55b9 7dbd
000000e0: f0d7 d5bd a94a dbbc 751e 1a3d 5cf6 9f3d
000000f0: 0ffc ba3d aeb3 59be af67 e3bd 2900 113c
00000100: 1d09 423e cbf9 83bd 8564 e1bd cd49 84bd
00000110: 50f0 143c 9852 113e a904 3cbe d87d 3fbe
00000120: 8b65 58bd 984b 6a3c 7497 853d 712d f1bd
00000130: d367 783d f99b cf3c b21e 09be b54b b7bd
00000140: 43e8 bfbd 70a1 4a3e c9ca 32bd 3850 fc3d
00000150: a3b0 edbd 057f 023e b099 18be e2e1 1e3e
00000160: 2821 4fbc b0ce 7e3d ee7e e4bd af91 9dbd
00000170: b971 bebd 9419 f83d 5284 013e 09e6 4e3d
00000180: b52d 9d3c dfd8 613c 302a 953d 2ccc 56bd
00000190: ba16 fa3d 3670 083d 0e6b 01bd 3bd5 243e
000001a0: 5673 43bb 9e71 a03d c0dd 42bc 7e82 e93d
000001b0: 543c 203d 376f 1cbe 23b0 303e 4a0c df3d
000001c0: 9266 263d e2c4 e1bd be6e ebbd 72d9 eb3a
000001d0: 22f3 523d 155f 5f3d b974 d5bd 7241 a7bd
000001e0: df48 babd 038d cbbd ec8b ca3d edfe 88bd
000001f0: 779f 203e 5d0c d93c 2d38 e4bd cb5b de3c
00000200: f7a6 cfbd cf80 2e3e 866b df3c e63d ef3d
00000210: 771b 883d a119 8e3d 56b6 b23d a9f6 1e3c
00000220: 7dcb 2ebd 6bb9 03be 4f61 04be 93a9 06be
00000230: db76 cf3d 02cd c5bd 7b1c 35be ecbe 41bd
00000240: 5c4f 1e3e e540 a43d bd7f 203d 8d00 78bd
00000250: 5884 513d de52 fe3d 4d7a 24be 7668 233e
00000260: 6fbb f8bb 07c6 2cbe ee3a fcbc de84 b53d
00000270: ad19 d0bd dc58 c13d 1bee afbc a0b8 333d
00000280: 19b8 ee3d 85c3 7c3d 1fae 8dbd 60f0 46bc
00000290: 361c 9fbd 684a 17be 8e1a 14be 7094 08be
000002a0: f5d2 fb3d 2fb6 303e d033 c0bd c8fa 173e
000002b0: 2ad6 c13d 4e81 1e3e e4c7 943d 62a0 62bb
000002c0: 8d3d 293e 73f1 4a3c 4296 153e a9e8 18be
000002d0: 7057 683d f75f d53d 82b6 12be f0bd 8c3d
000002e0: 62ba b7bd 765b ee3d b66b acbd bdc6 493d
000002f0: 5281 ee3d 3711 e6bb d242 c4bd 6711 113d
00000300: 087c c23d fa34 103e 7100 4f3c 484d dcbd
00000310: b9d9 c4bd 920e b33d 67b0 803d ad6e 02be
00000320: a027 09be c29f 0fbd be1e 41bd a0af 68bd
00000330: 1546 c0bd a3bd 1cbe 8bf3 8cbd 65f4 51be
00000340: d142 c53d d669 153e fa7b 933d 3c98 293d
00000350: 00bf b1bd 130f 5f3c 119d 2bbc 0818 e4bd
00000360: 7087 ebbd 638e 463e b994 0abd c774 d33b
00000370: 9b56 513e 15c4 cbbc c577 c3bb 2aa5 743c
00000380: 90bd 223e 4f0d 3b3c 49db b7bd 0e8d d23c
00000390: 1884 3c3d c5c7 663d 2758 be3d 4532 f1bd
000003a0: 53d8 52bd ee29 3c3b 7fad 183d ec65 b9bd
000003b0: 7f0b 483e 1967 ca3d 5a02 5ebb 52e3 bc3d
000003c0: 4366 c93d bb4e 0f3e 0706 1b3e c7e6 67bc
000003d0: 19e0 39bd 1195 ac3c 07cf 46bd cdb9 aabd
000003e0: 63c0 973d 1242 4dbd 46b8 9bbd 5573 29bd
000003f0: 95a1 bb3d 9dc8 4e3c d232 873d d4ea 5ebd
0.10406961 0.012828805 0.0651945 0.059252597 0.08719952 0.018231355 0.10319257 -0.0005715529
0.16256995 -0.13969563 0.08160384 -0.025803389 -0.00200929 -0.14885102 0.025990684 0.111646086
0.13775924 -0.124544084 0.1053752 0.08775627 -0.00081871427 0.022448428 -0.07443769 -0.10959057
0.11151208 0.14868414 0.050562143 0.15672898 -0.017840356 0.123004995 0.061863728 0.0045622587
-0.06100778 0.15188663 0.10156903 -0.00896558 0.045190435 0.058640074 -0.12238134 0.035695806
0.045663927 -0.083565004 0.07836411 -0.018300254 0.11627087 -0.14939585 0.0017796555 -0.009224628
0.041618098 -0.077413075 0.19099358 -0.08634279 0.16486171 0.040352955 -0.032137126 -0.061944325
-0.104415774 -0.026769 0.037626702 0.07810661 0.091301076 -0.21259949 -0.111037605 0.008850136
0.18948789 -0.064441286 -0.11005501 -0.06459389 0.009090498 0.14191663 -0.18361153 -0.1870035
-0.052831214 0.0143002495 0.06523028 -0.117762454 0.06064589 0.025342928 -0.13390616 -0.08949987
-0.09370472 0.19788146 -0.043650422 0.12319988 -0.116059564 0.12743767 -0.14902377 0.15515855
-0.012642182 0.06220883 -0.111570224 -0.076938026 -0.092990346 0.12114254 0.12648132 0.050512347
0.019186834 0.013784616 0.07283437 -0.052440807 0.12211366 0.033310138 -0.031596236 0.16096966
-0.0029823384 0.07834171 -0.01189369 0.114018425 0.039120033 -0.152768 0.17254691 0.10891016
0.040625162 -0.110238805 -0.11495732 0.0017993881 0.0515014 0.054534037 -0.10422654 -0.081667796
-0.0909593 -0.09939005 0.09889969 -0.06689248 0.15685831 0.026495153 -0.11143527 0.02714338
-0.10139268 0.17041324 0.02727295 0.11681728 0.066458635 0.06938482 0.08726184 0.009702363
-0.04267453 -0.128637 -0.12927745 -0.13150625 0.10130092 -0.09658243 -0.17686646 -0.047301218
0.1545996 0.0802019 0.03918432 -0.0605474 0.051151603 0.124181494 -0.16062279 0.15957817
-0.007590703 -0.16872416 -0.030789819 0.08863233 -0.10161147 0.09440777 -0.021475842 0.043877244
0.116562076 0.0617099 -0.069179766 -0.012142271 -0.07769053 -0.14774477 -0.14463255 -0.13337874
0.12296096 0.17256998 -0.093848825 0.14841759 0.09464677 0.15479013 0.072646886 -0.003458046
0.16527386 0.012386668 0.146081 -0.14932503 0.056724012 0.104186945 -0.14327434 0.06872165
-0.089710966 0.116385385 -0.08418982 0.049261797 0.1164576 -0.007021095 -0.095830575 0.035416987
0.09496313 0.14082709 0.012634383 -0.10756928 -0.0961184 0.087430134 0.06283646 -0.12737532
-0.13394022 -0.035064466 -0.04714846 -0.056808114 -0.09388367 -0.15306716 -0.0688239 -0.20503385
0.09631885 0.14591154 0.07201381 0.041404948 -0.086790085 0.013614434 -0.010474459 -0.11137396
-0.11500442 0.19390254 -0.03383324 0.00645313 0.20443194 -0.024873773 -0.0059652054 0.014931956
0.15892625 0.011416747 -0.08977372 0.025702026 0.046024412 0.05634286 0.092941575 -0.11777166
-0.051475834 0.0028711515 0.037274834 -0.09052643 0.19535635 0.098829456 -0.0033875913 0.092230454
0.09833958 0.13994877 0.15139018 -0.014154143 -0.04537973 0.021067174 -0.04853728 -0.0833622
0.07409742 -0.050111838 -0.07603507 -0.041369755 0.09161679 0.012621072 0.0660149 -0.05442317

bias f4 [10]
00000000: d82f 0c3d 40bd cc3d 293c b93c 09cf b43d
00000010: 93a4 c33d 486b 903d 8f49 ec3c e2fc febc
00000020: d53e 0abe d5b0 0ebe
0.034225315 0.09997034 0.022611694 0.08828551 0.095528744 0.07051712 0.02884367 -0.031126443
-0.13500531 -0.13934644
