model.pt (torch, 5011 bytes, 4 tensors)

weight f4 [40, 3]
0	0x3ef690bc	0.481573
1	0x3eace494	0.3376814
2	0xbe4aec1b	-0.1981663
3	0x3d933821	0.0718844
4	0x3d86fd22	0.0659125
5	0x3d269d54	0.040677384
6	0x3d8670d3	0.06564488
7	0xbeab12d3	-0.334128
8	0x3efbd0ae	0.49182647
9	0x3e1a959b	0.15096132
10	0xbe5ddf24	-0.21667153
11	0xbe88375e	-0.26604742
12	0x3aa5d6bf	0.00126525
13	0xbe9706fe	-0.29497522
14	0xbe3f3105	-0.18671043
15	0xbdc10cac	-0.09426245
16	0x3dc798b2	0.09745921
17	0xbf0b36e9	-0.5438066
18	0xbee5a719	-0.44854048
19	0x3e98fa69	0.29878548
20	0x3ebafa20	0.36518955
21	0xbef2bb23	-0.474084
22	0xbef6ca88	-0.48201394
23	0xbf1e3f12	-0.6181499
24	0x3e563b52	0.20921066
25	0x3d4c8aff	0.049937245
26	0x3dda7bde	0.10668157
27	0xbea59538	-0.32340407
28	0xbeedf16f	-0.46473262
29	0xbd25de93	-0.040495466
30	0x3ece38e8	0.4027779
31	0x3d48e63f	0.049047705
32	0xbed105a0	-0.40824604
33	0xbe53cd1d	-0.20683713
34	0xbf090dc7	-0.5353665
35	0x3e080479	0.13282956
36	0x3ecb92d4	0.39760458
37	0xbddcb2c1	-0.10776282
38	0x3d08bcdc	0.033383235
39	0x3de0187f	0.10942172
40	0x3eda1b83	0.42599115
41	0x3e462e37	0.19353567
42	0x3f12de73	0.5737068
43	0x3e9e7fb9	0.3095682
44	0x3e63f68c	0.22262019
45	0x3ebabc1e	0.36471647
46	0xbdd293fb	-0.10282131
47	0x3f108da1	0.5646611
48	0x3e07c0b3	0.13257103
49	0x3dbcae99	0.09212989
50	0xbe2d5856	-0.16928229
51	0x3e43f1f6	0.1913527
52	0x3e932366	0.28737944
53	0xbec39edb	-0.38207135
54	0xbe265e4a	-0.16246906
55	0xbb122442	-0.0022299443
56	0xbf0c8589	-0.5489126
57	0xbcda5e8e	-0.026656415
58	0xbe4a4ea2	-0.19756559
59	0x3e9ad4a8	0.3024037
60	0xbf053971	-0.52040774
61	0x3ef07b0e	0.46968883
62	0xbe4ad908	-0.19809353
63	0xbeb29d25	-0.34885517
64	0xbf0fe308	-0.562058
65	0x3e382b58	0.17985284
66	0xbecd2893	-0.40070018
67	0xbecf686a	-0.4050935
68	0x3f054193	0.52053183
69	0x3eb719b0	0.35761786
70	0x3e82a52b	0.25516638
71	0xbf29118e	-0.6604241
72	0x3eb1adc1	0.34702876
73	0xbddd82b8	-0.10815948
74	0x3c489dc6	0.012244647
75	0x3ef1feaa	0.47264606
76	0x3e379b03	0.17930226
77	0xbef3f8eb	-0.47650847
78	0x3e7f8948	0.24954712
79	0xbee03577	-0.4379079
80	0xbeaff862	-0.3436919
81	0x3e4e2f0f	0.20135139
82	0x3e92e6ca	0.28691703
83	0x3e835e4d	0.25657883
84	0x3e61c86a	0.22049108
85	0x3ea74494	0.32669508
86	0x3cb2c3de	0.021821912
87	0xbd050e00	-0.032484055
88	0x3ec2133e	0.37905306
89	0xbccf55c0	-0.025309443
90	0xbca13818	-0.019680068
91	0x3e4745da	0.1946024
92	0x3f041cb6	0.5160631
93	0x3ede36ef	0.43401286
94	0x3eb20cbd	0.34775344
95	0x3a11dd02	0.0005564244
96	0xbef28ffa	-0.4737547
97	0xbee3fe4c	-0.4452995
98	0xbef5b566	-0.4798996
99	0xbec304ca	-0.3808959
100	0x3ed62b8c	0.418301
101	0x3db76802	0.08955385
102	0xbdd73d5c	-0.1050975
103	0x3d91e739	0.0712418
104	0xbeeb097a	-0.45905668
105	0x3ed9e9e9	0.42561272
106	0x3ecc69bf	0.39924428
107	0xbf0ea1a3	-0.5571539
108	0xbe4d5271	-0.2005098
109	0xbee3e05d	-0.44507113
110	0x3f2190d3	0.6311161
111	0xbd747d50	-0.05968982
112	0x3d1cced2	0.038283177
113	0x3ebcdf9a	0.36889344
114	0xbed646c6	-0.4185087
115	0xbe574db2	-0.21025732
116	0xbf235ad5	-0.63810474
117	0x3d4ba03e	0.049713366
118	0x3da3daa5	0.080006875
119	0xbf09d146	-0.5383495

bias f4 [40]
0	0x3dfa6bb6	0.122275755
1	0x3dd2b0a9	0.102876015
2	0x3f0665ad	0.52498895
3	0xbf206ebf	-0.62668985
4	0xbe148dc2	-0.14507201
5	0xbecf4a94	-0.40486586
6	0xbef0c657	-0.4702632
7	0x3c272d8a	0.010203728
8	0xbe2498a3	-0.16073851
9	0x3df43ac1	0.11925269
10	0xbed869e1	-0.4226828
11	0x3efb69f1	0.49104264
12	0x3f0f6a5c	0.56021667
13	0xbf0200e3	-0.50782603
14	0xbc04f4ae	-0.008114977
15	0x3d81d4fc	0.06339452
16	0xbebc64ad	-0.3679556
17	0x3ef3a160	0.47584057
18	0x3e82875c	0.25493896
19	0xbe74aaea	-0.23893324
20	0xbd32d45c	-0.043659553
21	0xbf08599a	-0.5326172
22	0x3eb788e0	0.35846615
23	0xbefa4193	-0.48878154
24	0xbe7cc70d	-0.24685307
25	0x3e842ce8	0.2581551
26	0x3e5f442b	0.21803348
27	0x3ef72914	0.48273528
28	0xbeb2d8e8	-0.3493111
29	0x3e6446a9	0.2229258
30	0x3f02aa69	0.51041275
31	0xbe8aad0e	-0.27085155
32	0xbdd43588	-0.10361773
33	0xbf0cb61a	-0.54965365
34	0x3df6bd1b	0.12047788
35	0x3e96729e	0.2938432
36	0x3e26a825	0.1627508
37	0xbeac0dc2	-0.33604246
38	0xbf1dbe43	-0.6161844
39	0x3ecb21b4	0.3967415

weight f4 [10, 40]
0	0xbde5ef35	-0.11227266
1	0x3b0c71f3	0.0021430224
2	0x3dd20b9d	0.10256121
3	0x3e058f8b	0.13043039
4	0x3c9c293e	0.019062635
5	0xbe1bfb63	-0.15232615
6	0xbd54c468	-0.05194512
7	0x3d9d659a	0.076853946
8	0xbe087644	-0.13326365
9	0x3d8b2d89	0.067957945
10	0x3d0c472e	0.03424757
11	0x3d9e25b3	0.07722034
12	0xbde9c411	-0.1141435
13	0xbe14d6fe	-0.14535138
14	0xbe1ef6a3	-0.15523772
15	0x3dd64114	0.104616314
16	0xbd8c604f	-0.06854307
17	0x3caaf7c9	0.020870106
18	0xbdafd03d	-0.0858464
19	0x3d293b4b	0.04131631
20	0xbe0e0caa	-0.13872018
21	0xbd583424	-0.0527841
22	0x3e40b31b	0.18818323
23	0x3d634532	0.05548591
24	0x3ddbb218	0.10727328
25	0xbceab425	-0.028650353
26	0xbdc0171f	-0.0937941
27	0x3d216dc6	0.03941133
28	0xbce354aa	-0.027750332
29	0xbd012c92	-0.031536646
30	0x3d4a2d8f	0.049359854
31	0xbd8f05f9	-0.06983561
32	0x3e39cc5b	0.18144362
33	0xbc85531b	-0.01627498
34	0xbe11d19c	-0.14240116
35	0xbdcb7ce8	-0.09935933
36	0x3e42aa9d	0.19010396
37	0x3cad550d	0.02115872
38	0x3de0cf0f	0.10976993
39	0xbcce41ff	-0.025177954
40	0x3de8c4e8	0.11365682
41	0xbd208979	-0.039193604
42	0xbdc9bb00	-0.098501205
43	0x3cecb846	0.028896462
44	0x3c599bb5	0.013281752
45	0xbe289f47	-0.1646701
46	0x3e16f65f	0.1474242
47	0x3d57d715	0.052695353
48	0xbc1987a1	-0.009370715
49	0x3cb2cd1a	0.021826316
50	0xbe813e2c	-0.25242746
51	0x3e0998b4	0.13437158
52	0x3e223948	0.15842164
53	0x3e009e1e	0.12560317
54	0x3c95de68	0.018294528
55	0xbe40e34f	-0.18836711
56	0xbdbd4761	-0.0924213
57	0xbc990b2d	-0.018682087
58	0xbe7bbc55	-0.24583562
59	0xbd83d2c3	-0.06436684
60	0x3d6ae9e2	0.057351954
61	0x3e1c63cf	0.15272449
62	0xbccacedc	-0.024756841
63	0xbd77b44d	-0.060474683
64	0x3e15d1ef	0.14630865
65	0xbdde6dbd	-0.10860775
66	0x3dc57ac7	0.096425585
67	0x3dfd729b	0.12375375
68	0x3b9ee7fc	0.004849432
69	0xbdae1c52	-0.085014954
70	0x3d87488c	0.06605634
71	0x3d0bb3de	0.03410708
72	0xbd61561e	-0.05501377
73	0x3e11d551	0.1424153
74	0x3c3c0313	0.011475342
75	0xbe14ffbf	-0.14550684
76	0x3df0d205	0.11758808
77	0xbbfcf53c	-0.007719664
78	0xbe1ff001	-0.15618898
79	0xbdc94007	-0.09826665
80	0xbd5389b5	-0.051645
81	0xbd05fb78	-0.032710522
82	0xbb61aa5a	-0.0034433813
83	0xbda88a0b	-0.082294546
84	0x3e3a5488	0.18196309
85	0xbe244fba	-0.16046038
86	0xbde54830	-0.11195409
87	0xbdbfd363	-0.09366491
88	0xbe11b912	-0.14230755
89	0x3d036d59	0.032086704
90	0x3e07fae1	0.13279296
91	0x3e46ef65	0.1942726
92	0x3e2c3c3f	0.16819857
93	0xbe148371	-0.14503266
94	0xbd14f023	-0.036361825
95	0xbce05bf1	-0.027387591
96	0xbe3d0457	-0.18458687
97	0xbc9c3243	-0.019066935
98	0xbd813af3	-0.06310072
99	0xbab88f60	-0.0014080815
100	0xbdc1c697	-0.09461706
101	0x3d0044ef	0.03131574
102	0x3c1140ee	0.008865578
103	0xbc9037fb	-0.017604819
104	0xbdd3587a	-0.1031961
105	0xbcc4c076	-0.024017554
106	0xbdcf8ba2	-0.10134055
107	0xbe00ff9b	-0.12597506
108	0xbc0ffb52	-0.008787947
109	0xbe198d65	-0.14995344
110	0xbd414051	-0.047180478
111	0xbe458911	-0.19290568
112	0x3e4d88cb	0.20071714
113	0xbde083a5	-0.10962609
114	0xbd6fa943	-0.05851103
115	0xbe2596a3	-0.16170745
116	0x3d5b662e	0.053564243
117	0xbe33af5c	-0.17547363
118	0x3bb8d310	0.005640395
119	0xbda0d18f	-0.0785247
120	0x3d499969	0.04921857
121	0xbe4cd89a	-0.20004502
122	0xbd523328	-0.051318318
123	0xbd8292fd	-0.06375692
124	0x3df09fe3	0.11749246
125	0xbdea0527	-0.11426764
126	0xbda61680	-0.0810976
127	0xbdaaec18	-0.083458126
128	0xbd30619f	-0.04306185
129	0x3e497eaf	0.19677232
130	0xbdd633d5	-0.10459105
131	0xbd5e0ab5	-0.05420943
132	0x3d025051	0.031814877
133	0xbe477d45	-0.1948138
134	0xbd43e2e2	-0.047823794
135	0x3c19fb46	0.009398287
136	0x3c12e89b	0.00896659
137	0xbe45bcde	-0.19310328
138	0xbcbd3395	-0.023095885
139	0x3d19b337	0.03752443
140	0xbe3d1843	-0.18466286
141	0xbda29ea2	-0.07940413
142	0x3e29d367	0.1658455
143	0x3d2dee2b	0.042463463
144	0x3e41ea1f	0.18936966
145	0x3dd6506a	0.104645565
146	0xbce01f43	-0.027358657
147	0xbe101c24	-0.14073235
148	0x3d0321c7	0.032014634
149	0xbe0712b0	-0.13190722
150	0xbe3ba90b	-0.18326204
151	0xbd70aed0	-0.058760464
152	0x3dee2ed3	0.11630025
153	0x3ce6441a	0.028108645
154	0xbe1c4351	-0.15260054
155	0xbe1a07b9	-0.15042008
156	0x3c4409ce	0.011965228
157	0xbdbb2de8	-0.09139615
158	0x3d866ed5	0.06564108
159	0x3d81d4a8	0.06339389
160	0xbe4717f4	-0.19442731
161	0x3dcdbf35	0.100462355
162	0xbdbaa488	-0.09113413
163	0xbd9bea81	-0.076130874
164	0x3d9de89b	0.077103816
165	0xbdcbd6d9	-0.09953088
166	0xbe2b0f30	-0.16705012
167	0x3e31462f	0.17311929
168	0xbe500117	-0.20312916
169	0x3e456e51	0.19280364
170	0x3ccc8e2a	0.024970133
171	0x3e063bbd	0.13108726
172	0x3e2b79da	0.16745701
173	0xbe09e624	-0.13466698
174	0xbe261589	-0.16219153
175	0xbd96771f	-0.07346939
176	0x3d6eacd9	0.05827031
177	0xbd183d4c	-0.037167832
178	0xbde5ad0d	-0.112146474
179	0xbde2e773	-0.11079302
180	0xbe2784b8	-0.16359222
181	0x3d379847	0.044822957
182	0x3dbd922f	0.09256398
183	0x3cc91724	0.024547167
184	0x3e279089	0.1636373
185	0x3d6edf34	0.05831833
186	0xbcb4b64c	-0.022059582
187	0xbd8d1f37	-0.068907194
188	0xbe43b9f0	-0.19113898
189	0x3d72cb3e	0.059275858
190	0xbe142930	-0.14468837
191	0xbc105028	-0.008808173
192	0xbda1eaf2	-0.079061404
193	0x3da199aa	0.07890637
194	0x3dec1bdf	0.115287535
195	0xbd989a4c	-0.07451305
196	0x3d8a3ecb	0.06750258
197	0xbd980080	-0.0742197
198	0xbdceeab8	-0.10103363
199	0xbdb1ece8	-0.086877644
200	0xbdc71a2c	-0.09721789
201	0xbd6ef42e	-0.058338337
202	0x3e0f8f94	0.14019614
203	0xbbd3e038	-0.006465938
204	0xbd4aa36e	-0.049472265
205	0xbe6a7583	-0.2289639
206	0x3ddd2ca2	0.10799529
207	0x3dacf926	0.08445959
208	0x3df1e485	0.11811165
209	0xbda3e103	-0.08001902
210	0xbe059c32	-0.13047865
211	0xbd8951e3	-0.06705072
212	0x3dcdfebb	0.100583516
213	0xbdab4bb2	-0.08364047
214	0x3d88fec2	0.06689216
215	0xbc0a76ec	-0.008451205
216	0x3d2ed47d	0.042683113
217	0x3d08b30d	0.03337388
218	0x3e1c265a	0.15249005
219	0xbe056cc5	-0.13029774
220	0xbdd52acb	-0.10408553
221	0x3d0b226d	0.033968378
222	0x3db06523	0.0861304
223	0xbe179690	-0.14803529
224	0x3d40a5fa	0.047033288
225	0xbd7f9898	-0.062401384
226	0xbdf78341	-0.120855816
227	0x3e07639f	0.13221596
228	0x3d668f0b	0.05628876
229	0x3e23b97b	0.15988724
230	0x3dde1821	0.10844446
231	0xbdb365a3	-0.0875962
232	0xbdb7ac5c	-0.08968422
233	0x3c4592d3	0.012058931
234	0xbdc7e201	-0.09759904
235	0x3dd003bd	0.10156963
236	0xbca86e4e	-0.02056041
237	0x3d814ff2	0.063140765
238	0xbe0ad480	-0.13557625
239	0xbe07fa27	-0.1327902
240	0x3dcb0cde	0.099145636
241	0x3de7bd50	0.11315405
242	0xbdfd82e4	-0.12378481
243	0x3d8bbe89	0.06823451
244	0x3dbefd7f	0.09325694
245	0x3e2ee9cd	0.17081375
246	0xbdbae120	-0.091249704
247	0x3d997062	0.074921384
248	0xbdb2d189	-0.08731372
249	0x3d8b2088	0.06793314
250	0x3ded2d4d	0.11580906
251	0xbafcb15a	-0.0019278929
252	0xbe069ead	-0.13146468
253	0x3cf559c8	0.029950038
254	0xbdfdd3c6	-0.12393908
255	0x3c555aaf	0.013022109

bias f4 [10]
0	0x3dd05a51	0.101734765
1	0xbdd8b418	-0.10581225
2	0x3d492b16	0.049113356
3	0x3ddc5d70	0.10760009
4	0x3d0a7c12	0.03380973
5	0x3e1ecc9a	0.15507737
6	0xbd7bbc2a	-0.061458744
7	0x3dc7ca0e	0.09755336
8	0x3d29d25c	0.04146038
9	0x3d1aac5b	0.037762027
